…
W1227 11:41:56.491561 140693391079168 deprecation_wrapper.py:119] From /home/anupam/miniconda3py38/envs/generative/lib/python3.6/site-packages/keras/backend/tensorflow_backend.py:517: The name tf.placeholder is deprecated. Please use tf.compat.v1.placeholder instead.

W1227 11:41:56.493031 140693391079168 deprecation_wrapper.py:119] From /home/anupam/miniconda3py38/envs/generative/lib/python3.6/site-packages/keras/backend/tensorflow_backend.py:4138: The name tf.random_uniform is deprecated. Please use tf.random.uniform instead.

_________________________________________________________________
Layer (type)                 Output Shape              Param #   
=================================================================
input_1 (InputLayer)         (None, 32, 32, 3)         0         
_________________________________________________________________
conv2d_1 (Conv2D)            (None, 16, 16, 10)        490       
_________________________________________________________________
leaky_re_lu_1 (LeakyReLU)    (None, 16, 16, 10)        0         
_________________________________________________________________
conv2d_2 (Conv2D)            (None, 8, 8, 20)          1820      
_________________________________________________________________
leaky_re_lu_2 (LeakyReLU)    (None, 8, 8, 20)          0         
_________________________________________________________________
flatten_1 (Flatten)          (None, 1280)              0         
_________________________________________________________________
dense_1 (Dense)              (None, 10)                12810     
_________________________________________________________________
leaky_re_lu_3 (LeakyReLU)    (None, 10)                0         
=================================================================
Total params: 15,120
Trainable params: 15,120
Non-trainable params: 0
_________________________________________________________________

Compiling the model (opt=Adam, loss=cat_cross-entropy, lr=0.005)

W1227 11:41:56.536309 140693391079168 deprecation_wrapper.py:119] From /home/anupam/miniconda3py38/envs/generative/lib/python3.6/site-packages/keras/optimizers.py:790: The name tf.train.Optimizer is deprecated. Please use tf.compat.v1.train.Optimizer instead.
…
