…
W1227 13:35:05.926672 139847783597824 deprecation.py:506] From /home/anupam/miniconda3py38/envs/generative/lib/python3.6/site-packages/keras/backend/tensorflow_backend.py:3445: calling dropout (from tensorflow.python.ops.nn_ops) with keep_prob is deprecated and will be removed in a future version.
Instructions for updating:
Please use `rate` instead of `keep_prob`. Rate should be set to `rate = 1 - keep_prob`.
_________________________________________________________________
Layer (type)                 Output Shape              Param #   
=================================================================
input_1 (InputLayer)         (None, 32, 32, 3)         0         
_________________________________________________________________
conv2d_1 (Conv2D)            (None, 32, 32, 32)        896       
_________________________________________________________________
batch_normalization_1 (Batch (None, 32, 32, 32)        128       
_________________________________________________________________
leaky_re_lu_1 (LeakyReLU)    (None, 32, 32, 32)        0         
_________________________________________________________________
conv2d_2 (Conv2D)            (None, 16, 16, 32)        9248      
_________________________________________________________________
batch_normalization_2 (Batch (None, 16, 16, 32)        128       
_________________________________________________________________
leaky_re_lu_2 (LeakyReLU)    (None, 16, 16, 32)        0         
_________________________________________________________________
conv2d_3 (Conv2D)            (None, 16, 16, 64)        18496     
_________________________________________________________________
batch_normalization_3 (Batch (None, 16, 16, 64)        256       
_________________________________________________________________
leaky_re_lu_3 (LeakyReLU)    (None, 16, 16, 64)        0         
_________________________________________________________________
conv2d_4 (Conv2D)            (None, 8, 8, 64)          36928     
_________________________________________________________________
batch_normalization_4 (Batch (None, 8, 8, 64)          256       
_________________________________________________________________
leaky_re_lu_4 (LeakyReLU)    (None, 8, 8, 64)          0         
_________________________________________________________________
flatten_1 (Flatten)          (None, 4096)              0         
_________________________________________________________________
dense_1 (Dense)              (None, 128)               524416    
_________________________________________________________________
batch_normalization_5 (Batch (None, 128)               512       
_________________________________________________________________
leaky_re_lu_5 (LeakyReLU)    (None, 128)               0         
_________________________________________________________________
dropout_1 (Dropout)          (None, 128)               0         
_________________________________________________________________
dense_2 (Dense)              (None, 10)                1290      
_________________________________________________________________
activation_1 (Activation)    (None, 10)                0         
=================================================================
Total params: 592,554
Trainable params: 591,914
Non-trainable params: 640
_________________________________________________________________

Compiling the model (opt=Adam, loss=cat_cross-entropy, lr=0.005)

W1227 13:35:05.953441 139847783597824 deprecation_wrapper.py:119] From /home/anupam/miniconda3py38/envs/generative/lib/python3.6/site-packages/keras/optimizers.py:790: The name tf.train.Optimizer is deprecated. Please use tf.compat.v1.train.Optimizer instead.
…
